ai/data/model_sage_q2_2025.pt (torch, 557252 bytes, 7 tensors)

conv1.lin_l.weight f4 [64, 1016]
0	0x1d054ea0	1.7643052e-21
1	0x99889d69	-1.4125648e-23
2	0x9f00d10d	-2.7277977e-20
3	0x1f9eaa5f	6.719746e-20
4	0xa05c5ec6	-1.8666083e-19
5	0x9d8f3307	-3.7904546e-21
6	0x1f0717e6	2.860713e-20
7	0xb0b2de06	-1.3014307e-09
8	0x22c436f0	5.3184074e-18
9	0xbaa6fa7c	-0.0012739445
10	0x1f361672	3.8558565e-20
11	0xbbacbd23	-0.0052715703
12	0xb8bdefbc	-9.056876e-05
13	0xbca26d45	-0.019827494
14	0xb82b7bfc	-4.0885046e-05
15	0xa2f04975	-6.5129906e-18
16	0x9ea3441c	-1.7286466e-20
17	0xaf00e928	-1.1724366e-10
18	0x9e1f74ee	-8.4415704e-21
19	0x9f3c3e6d	-3.9862186e-20
20	0x1fa35259	6.916942e-20
21	0x2bd1d46c	1.4909302e-12
22	0x1ebb523e	1.983341e-20
23	0x25036d52	1.1399478e-16
24	0x1f81cb93	5.497041e-20
25	0xb2fda650	-2.9528707e-08
26	0xa425b1cf	-3.592928e-17
27	0xacdfc783	-6.3601915e-12
28	0x20baeed6	3.1667674e-19
29	0x264429f7	6.8058033e-16
30	0xb7a3667f	-1.9478843e-05
31	0xb2e8fb5a	-2.7122656e-08
32	0x2b7c69a4	8.967499e-13
33	0x2029d092	1.4383867e-19
34	0xb476215d	-2.2922673e-07
35	0x9d999269	-4.0650147e-21
36	0xa66ccc7e	-8.2156087e-16
37	0x9f139c22	-3.125761e-20
38	0xa90bb156	-3.1018014e-14
39	0xb7015575	-7.708896e-06
40	0x276a42d3	3.251025e-15
41	0xbb799902	-0.0038085585
42	0xa5be5550	-3.3017556e-16
43	0xb40d73a4	-1.3173718e-07
44	0xa32f4c25	-9.502893e-18
45	0xa477d9a2	-5.374393e-17
46	0xbb42bdb7	-0.002971513
47	0x9e912571	-1.5367958e-20
48	0xb26e7f6c	-1.3882396e-08
49	0xb776a008	-1.4700003e-05
50	0x9ea55abe	-1.7507585e-20
51	0x2bf870f7	1.7652814e-12
52	0x1cb22c13	1.1790445e-21
53	0xb3b91ce5	-8.61999e-08
54	0x1fa7e6bf	7.110899e-20
55	0x1fb69bcb	7.7337736e-20
56	0xb993a2d7	-0.0002815935
57	0xb4ad2b3b	-3.2255215e-07
58	0x2284556d	3.586912e-18
59	0x9f1119f4	-3.0726412e-20
60	0x9d705d75	-3.1812052e-21
61	0x24dd0d93	9.586647e-17
62	0x1f704bf9	5.088482e-20
63	0x9fdaaee1	-9.2615904e-20
64	0xba06bbe8	-0.00051396945
65	0x1f21af35	3.4238004e-20
66	0x1e4c7946	1.0824749e-20
67	0x2ad209f7	3.7310408e-13
68	0xa32de8d5	-9.427653e-18
69	0x2541a93a	1.6797418e-16
70	0x1f162243	3.1792076e-20
71	0x9f25f98d	-3.5146533e-20
72	0x1edbbd3e	2.3265796e-20
73	0xb69f131f	-4.7407952e-06
74	0x1f210e5c	3.4104954e-20
75	0xb22a52c9	-9.9141255e-09
76	0x9c95da12	-9.916363e-22
77	0xb9266ca0	-0.0001587146
78	0x29dfb15b	9.9339556e-14
79	0xb584a81f	-9.883696e-07
80	0x9ee19571	-2.3884609e-20
81	0xa423badf	-3.5503277e-17
82	0x9fc763ec	-8.4445085e-20
83	0xbc1a8627	-0.0094313985
84	0x2a83df43	2.3425194e-13
85	0x2699b92e	1.0666701e-15
86	0x23118223	7.888023e-18
87	0xa47ddd52	-5.5048096e-17
88	0x9de04ee4	-5.9373877e-21
89	0xa5f93675	-4.3231516e-16
90	0xb64149e9	-2.8802262e-06
91	0xa01e1d18	-1.3392747e-19
92	0xa26350fd	-3.0807111e-18
93	0xa0b903b6	-3.1342675e-19
94	0x27a46cb5	4.5637004e-15
95	0x2c3c0885	2.6721136e-12
96	0x9e329662	-9.45434e-21
97	0x2387bc84	1.4716569e-17
98	0x1ee1b6bd	2.389838e-20
99	0x2b61daa2	8.023947e-13
100	0x2af8d374	4.4200375e-13
101	0x9df66ae0	-6.5226164e-21
102	0x1e9d0e83	1.6629023e-20
103	0xb3d6e891	-1.0007455e-07
104	0x9f05faf5	-2.8371432e-20
105	0x9fab3c67	-7.2521244e-20
106	0x1f81cdaf	5.49739e-20
107	0x9fec0e87	-9.997392e-20
108	0xb95a7b54	-0.00020836043
109	0x1c133a3e	4.8713496e-22
110	0x1eb982a3	1.9641667e-20
111	0x1f52d420	4.4644695e-20
112	0x2115dd22	5.077583e-19
113	0x1e56f7e6	1.138033e-20
114	0x2c21467d	2.2918605e-12
115	0xb3fe5a8b	-1.18442664e-07
116	0x2104574b	4.483887e-19
117	0x1f5421b9	4.492064e-20
118	0xa0f8a53c	-4.2122177e-19
119	0xb79590a5	-1.782954e-05
120	0x9ba49d0b	-2.723301e-22
121	0x9ce0a0bc	-1.4864625e-21
122	0x1e036b47	6.957267e-21
123	0x9cd8ee01	-1.4355204e-21
124	0x1eab81e7	1.8159056e-20
125	0xb2454738	-1.14831025e-08
126	0x1e7c7281	1.3364448e-20
127	0x2030b73f	1.4968411e-19
128	0x1e23f2bd	8.679345e-21
129	0xa9cefb19	-9.191796e-14
130	0xb402440b	-1.2131947e-07
131	0xae2ad4ce	-3.8842533e-11
132	0x9dbb941d	-4.9651633e-21
133	0x9f05c90f	-2.8330157e-20
134	0x9df8d42c	-6.5864434e-21
135	0x9f2cef7d	-3.6620517e-20
136	0x1e12946d	7.759869e-21
137	0x1d88875a	3.613885e-21
138	0xb3232194	-3.7981934e-08
139	0xa3c14ae8	-2.0956826e-17
140	0x9d978249	-4.010408e-21
141	0x2116171a	5.085255e-19
142	0x9e957841	-1.5825724e-20
143	0x9dd7b0c4	-5.7092798e-21
144	0x20f72315	4.1866643e-19
145	0x23a245f1	1.7593697e-17
146	0x9fc26f92	-8.2346773e-20
147	0xa4a95335	-7.3433025e-17
148	0x221a009b	2.0871212e-18
149	0x9faf80b1	-7.4328285e-20
150	0x9e63abc7	-1.2052803e-20
151	0x1f44c766	4.1669553e-20
152	0xa04cdd32	-1.735266e-19
153	0xb09c0d02	-1.1354191e-09
154	0x25b320eb	3.1073856e-16
155	0x9eee7898	-2.5249107e-20
156	0x9de7dbad	-6.137233e-21
157	0x9d8dec19	-3.756651e-21
158	0x9e4b99fb	-1.0778573e-20
159	0x9f030006	-2.774035e-20
160	0x9e9258c2	-1.549506e-20
161	0x9e511695	-1.1069038e-20
162	0x9dadbebf	-4.5989946e-21
163	0x9d905efa	-3.8214686e-21
164	0x9f382029	-3.8990118e-20
165	0x9e87e891	-1.4389868e-20
166	0x1dc0dc1f	5.1049577e-21
167	0x9f2af138	-3.6198432e-20
168	0x2092d235	2.4872465e-19
169	0xae75612a	-5.579285e-11
170	0x1d904bae	3.8194734e-21
171	0x1e1f1a5a	8.422839e-21
172	0x1f9ad7ba	6.5578427e-20
173	0x1e3337e6	9.487741e-21
174	0xa064e2e0	-1.9387418e-19
175	0xba499152	-0.0007689196
176	0x9f044e32	-2.801677e-20
177	0x1deaf3e2	6.2191453e-21
178	0x1dffea53	6.7740224e-21
179	0x1eb24c40	1.887802e-20
180	0x1ec8b7bc	2.1251814e-20
181	0x1e81fdf8	1.3763445e-20
182	0x9d268166	-2.2036814e-21
183	0x9db5031c	-4.7913516e-21
184	0x9e5ce07c	-1.1693125e-20
185	0x1ea3b7e9	1.733436e-20
186	0x1e28b69d	8.9316095e-21
187	0x1e0a1e96	7.311984e-21
188	0x9e3a2ef0	-9.8564645e-21
189	0x9e49bf60	-1.0680427e-20
190	0x27dea013	6.179093e-15
191	0x9f8d852f	-5.9936157e-20
192	0x9cdd5306	-1.4646014e-21
193	0x9d8d59fd	-3.7415435e-21
194	0x1ea6570b	1.7611934e-20
195	0x1e412f14	1.02270705e-20
196	0xa0fbaa04	-4.263356e-19
197	0x1eaa043c	1.8001201e-20
198	0xa139a25a	-6.289531e-19
199	0x1cc7b2d0	1.3214937e-21
200	0x9e792c1f	-1.3191074e-20
201	0x1ee3d8dd	2.4124252e-20
202	0x1e0188cb	6.857491e-21
203	0x9e9e358b	-1.6751046e-20
204	0x9d846e17	-3.505394e-21
205	0x1abcaa89	7.803049e-23
206	0x9d7b0b7d	-3.3225513e-21
207	0x9e670ae2	-1.2231289e-20
208	0x1df240af	6.4123748e-21
209	0x9d9e29bc	-4.1865404e-21
210	0xa458e5b2	-4.7032093e-17
211	0x1f919771	6.166043e-20
212	0x9e40caa0	-1.0206297e-20
213	0x1e9ebd6f	1.6807249e-20
214	0x1ebce861	2.0001384e-20
215	0x1d8996fb	3.641971e-21
216	0x9f3cd501	-3.998674e-20
217	0x9d37d86f	-2.4331742e-21
218	0x1e7165eb	1.277951e-20
219	0x21065a37	4.5520364e-19
220	0x9e9ecd60	-1.6813842e-20
221	0x9e416a38	-1.02393004e-20
222	0xa8189ada	-8.471273e-15
223	0x9d156439	-1.97718e-21
224	0x9e7b8059	-1.3314371e-20
225	0x9dca13fd	-5.3489622e-21
226	0x9e4764ad	-1.05557915e-20
227	0x1ea77657	1.7730757e-20
228	0x9e38f47b	-9.791436e-21
229	0x9ea9de8c	-1.7985614e-20
230	0x1bc7569a	3.2977753e-22
231	0x1f230bc0	3.4526312e-20
232	0x9e444b59	-1.0391735e-20
233	0x9e14f581	-7.885824e-21
234	0x9fb811fa	-7.795677e-20
235	0x1fa3c68c	6.9361653e-20
236	0x9eaa31ba	-1.8020017e-20
237	0xaf4f1d21	-1.8836889e-10
238	0x9e8da8ed	-1.4998822e-20
239	0x1e3b04c0	9.90068e-21
240	0xa00f0a33	-1.2115946e-19
241	0x9e056689	-7.062165e-21
242	0x9dfae131	-6.640729e-21
243	0xa057f4e6	-1.8292238e-19
244	0x1da3e31e	4.3380574e-21
245	0x9e1aea23	-8.2011105e-21
246	0x9f18309c	-3.222746e-20
247	0xb43233c5	-1.6596375e-07
248	0x9e6c4655	-1.250828e-20
249	0x9f2a9a01	-3.612629e-20
250	0x9d52ecf3	-2.7915768e-21
251	0x20bc1fb5	3.186942e-19
252	0x1e3581bb	9.608888e-21
253	0x9e7d12b3	-1.3397575e-20
254	0x9c67ac9c	-7.665458e-22
255	0x9e61d9e4	-1.19564595e-20

conv1.lin_l.bias f4 [64]
0	0xbd603a6e	-0.054743223
1	0x3e0afb28	0.13572371
2	0xbd45a5f8	-0.048253983
3	0x3e499a4e	0.19687769
4	0x3e2b0f86	0.1670514
5	0xbd84ad0f	-0.06478321
6	0x3e33e4ae	0.17567703
7	0xbd836c00	-0.06417084
8	0x3e13c5ee	0.14430973
9	0xbcaf8a26	-0.021428179
10	0x3e5e7a92	0.21726444
11	0xbd6c67b4	-0.057716087
12	0x3e1c5184	0.1526547
13	0x3e556b8b	0.20841806
14	0x3e004d43	0.12529473
15	0xbd6711f1	-0.056413595
16	0x3e431d84	0.19054228
17	0x3e219ce7	0.1578251
18	0xbd89d757	-0.06730526
19	0x3e40a476	0.18812737
20	0xbd88ece9	-0.06685812
21	0xbd95cc83	-0.07314398
22	0x3e234908	0.15945828
23	0x3e51cdec	0.20488709
24	0xbd906d0a	-0.070520476
25	0xbe88bbf6	-0.26705903
26	0x3e3459e9	0.17612423
27	0x3e1f400f	0.1555178
28	0xbd4e604a	-0.050384797
29	0xbd890b9c	-0.066916674
30	0x3e064f7c	0.13116258
31	0x3e1231dd	0.14276834
32	0xbd0ac09f	-0.033875104
33	0x3e118a67	0.14212953
34	0x3e374044	0.17895609
35	0x3e137842	0.14401343
36	0x3c51980b	0.0127925975
37	0x3d80ac1e	0.06282829
38	0xbd3f159c	-0.046651468
39	0x3e315ab2	0.17319754
40	0xbd726588	-0.05917886
41	0x3e17bf75	0.14819129
42	0xbd73b099	-0.05949459
43	0xbd8238bd	-0.06358478
44	0xbd971278	-0.073765695
45	0x3e0de29c	0.13855976
46	0xbe6cb122	-0.23114446
47	0x3e05aba1	0.13053752
48	0x3e443d1b	0.19163935
49	0xbd5a5eea	-0.053313173
50	0xbd4ad92f	-0.04952353
51	0x3d5892e4	0.05287446
52	0xbd613e42	-0.054991014
53	0xbd839325	-0.0642455
54	0x3dd4d1f4	0.10391608
55	0xbc86b7db	-0.016445091
56	0x3d78c2eb	0.060732763
57	0xbd616d6f	-0.055036005
58	0xbeb7f7cc	-0.35931242
59	0x3e46a1a9	0.19397606
60	0xbd1cf21e	-0.03831684
61	0x3e1138a9	0.1418177
62	0x3e4a3c7d	0.19749637
63	0x3e3b88fb	0.18313973

conv1.lin_r.weight f4 [64, 1016]
0	0x9d167b3c	-1.9916045e-21
1	0x9cb2e3cf	-1.1837939e-21
2	0x9e601bbc	-1.18641966e-20
3	0x213aa586	6.323832e-19
4	0x23241604	8.89512e-18
5	0x1de64829	6.0955105e-21
6	0x2011562f	1.2310493e-19
7	0x9f5bf7d9	-4.658007e-20
8	0x9d40cada	-2.551586e-21
9	0xbaef4d04	-0.0018257205
10	0xa1a4ccca	-1.1167279e-18
11	0x1fcf8355	8.788518e-20
12	0x9d169a17	-1.9931997e-21
13	0x1c6dd2e1	7.8689277e-22
14	0xa47232b9	-5.251835e-17
15	0xaf7515d0	-2.229037e-10
16	0x9d00072e	-1.694437e-21
17	0x1d9869bd	4.0343396e-21
18	0x9effee93	-2.7097847e-20
19	0x9f0b28ec	-2.9468245e-20
20	0x200235d0	1.1029233e-19
21	0x9e85b950	-1.4158566e-20
22	0x1d628336	2.9978685e-21
23	0x2550c987	1.8109404e-16
24	0x9d02b060	-1.729654e-21
25	0x9dd1cbe9	-5.5532678e-21
26	0xaf90687a	-2.6267682e-10
27	0x1eab218e	1.8119207e-20
28	0x1b6a29f2	1.936958e-22
29	0xb30a41e3	-3.2190552e-08
30	0xba93e711	-0.0011284073
31	0xb854d83b	-5.074612e-05
32	0xad3404cd	-1.0232881e-11
33	0x25d7f19a	3.746027e-16
34	0x1d37e90f	2.4340337e-21
35	0x9ec23ffe	-2.0567016e-20
36	0x9e169856	-7.972436e-21
37	0x1d203f10	2.1208426e-21
38	0xb3861975	-6.244492e-08
39	0xba499f7e	-0.00076913077
40	0x2bf44ba9	1.7358243e-12
41	0xbbdd2cd9	-0.006749731
42	0xb306faa0	-3.142725e-08
43	0xb97360e4	-0.0002321038
44	0xa9188c48	-3.3872455e-14
45	0x1f010d38	2.7327747e-20
46	0xbc0687e7	-0.008211113
47	0x9e0aa662	-7.340066e-21
48	0x1d83f4ab	3.4928392e-21
49	0xba2a5b88	-0.00064986246
50	0x9d1e5555	-2.0955242e-21
51	0xb61c3f43	-2.3282635e-06
52	0x9d936f09	-3.9025384e-21
53	0xb9b2ea1a	-0.00034125225
54	0x1e477449	1.05590195e-20
55	0x21c5e162	1.3408898e-18
56	0x1eba2351	1.9708123e-20
57	0xb9640f7d	-0.00021749544
58	0x1d5abc95	2.8949554e-21
59	0x9c706157	-7.953515e-22
60	0x9eb6dc95	-1.936123e-20
61	0xb08fc2af	-1.0459952e-09
62	0x1ee3057e	2.4036831e-20
63	0xa2a13641	-4.369658e-18
64	0xbba5969e	-0.0050533554
65	0x9f105a37	-3.056781e-20
66	0x1d1ab98a	2.0477652e-21
67	0xb51d012f	-5.848878e-07
68	0x1d84914e	3.509035e-21
69	0xa64f428a	-7.190773e-16
70	0x9d615e7e	-2.9827353e-21
71	0xa01baa49	-1.3185353e-19
72	0x1c82415e	8.619575e-22
73	0x1d09ea91	1.8253067e-21
74	0x1fdd2aeb	9.366814e-20
75	0x9e49e9e6	-1.06892205e-20
76	0x9c7c3981	-8.345413e-22
77	0xbb288565	-0.0025714275
78	0xb60a1fb3	-2.0582054e-06
79	0x1f059253	2.8284882e-20
80	0x212b3af4	5.8015077e-19
81	0x205493bd	1.8005981e-19
82	0x1d1adadf	2.0494884e-21
83	0xad8e98b1	-1.621134e-11
84	0x1d4103f3	2.554538e-21
85	0xafb65a9d	-3.3169992e-10
86	0x9f548598	-4.5003252e-20
87	0x1fdba7b1	9.302753e-20
88	0x9e683acf	-1.2294139e-20
89	0x25008647	1.1147725e-16
90	0xb6da2f33	-6.502401e-06
91	0x27c719dd	5.5261637e-15
92	0x9f69fa99	-4.954696e-20
93	0x1fb8abdb	7.821134e-20
94	0x1e8857c4	1.4435859e-20
95	0xb28a6fa0	-1.6116076e-08
96	0x9e61b300	-1.1948417e-20
97	0x1faa5cea	7.2151514e-20
98	0x9fb3c08d	-7.6128e-20
99	0xa2792e09	-3.3770163e-18
100	0x9d7dc2d7	-3.3585001e-21
101	0x1f8bfa38	5.928274e-20
102	0x1d5adb67	2.8965488e-21
103	0xb8ef4450	-0.00011409132
104	0x1d3376c3	2.3751851e-21
105	0x207066f3	2.0362854e-19
106	0x250f16b3	1.2410964e-16
107	0x9e81ec8b	-1.3756238e-20
108	0xbac50e8b	-0.0015034241
109	0x1ca40d78	1.0856091e-21
110	0x1ed5b42b	2.2626768e-20
111	0xa25921f7	-2.9426965e-18
112	0xa905f37d	-2.9743125e-14
113	0x1f56d905	4.5495777e-20
114	0xb06239fd	-8.230073e-10
115	0x9d624ec4	-2.9951572e-21
116	0xa8ea3048	-2.6000157e-14
117	0x9e499095	-1.067075e-20
118	0x9db4791d	-4.777083e-21
119	0xb89e891f	-7.559568e-05
120	0x1cf6e855	1.6338971e-21
121	0x9dad0e03	-4.5807206e-21
122	0x9ccf4b96	-1.3717649e-21
123	0x9d84ffb8	-3.5204516e-21
124	0x9f326568	-3.7776847e-20
125	0xb8625896	-5.39651e-05
126	0xa285631a	-3.615465e-18
127	0x9d80cef5	-3.4095306e-21
128	0x9d08901d	-1.8073955e-21
129	0xb5ba7e3b	-1.3894818e-06
130	0x21b8eda8	1.2531232e-18
131	0xb724feeb	-9.8345145e-06
132	0x1c5f3835	7.3857157e-22
133	0x1e1aa729	8.18726e-21
134	0x9ccd3b92	-1.3581161e-21
135	0x1e1483f5	7.862343e-21
136	0x9e6c699f	-1.2515578e-20
137	0x9d0a9965	-1.8343451e-21
138	0x9c847f8a	-8.767995e-22
139	0xb2300412	-1.0245474e-08
140	0x1e31f5e7	9.421153e-21
141	0x21158bae	5.066803e-19
142	0x9e4def36	-1.0902077e-20
143	0x9d25926d	-2.1913269e-21
144	0xa973ef10	-5.4164193e-14
145	0x9d60e72e	-2.976567e-21
146	0x1bf3cfef	4.0335352e-22
147	0x9ca1745c	-1.0684164e-21
148	0x26ad3a3d	1.2020072e-15
149	0x9ef44e1b	-2.5866809e-20
150	0x1d1deb52	2.0900435e-21
151	0x1e8fbf13	1.521974e-20
152	0xa3a1e2ac	-1.7551654e-17
153	0xb4c904d3	-3.7442678e-07
154	0xb403341a	-1.221928e-07
155	0xa0a68112	-2.8206905e-19
156	0x1bbfeef6	3.1752724e-22
157	0x1d0d3be7	1.8692163e-21
158	0x9c42e2c3	-6.44823e-22
159	0x1f1d69f7	3.3333695e-20
160	0x1e1cc503	8.299312e-21
161	0x1c35bbee	6.013077e-22
162	0x1d074f09	1.7907961e-21
163	0x1dc6e607	5.2648006e-21
164	0x1d25157d	2.1848677e-21
165	0x1fa6722f	7.0492636e-20
166	0x1cd5f6c6	1.4158947e-21
167	0x9cbb9151	-1.2412185e-21
168	0x9df24856	-6.413166e-21
169	0xb5b36960	-1.3367207e-06
170	0x1cce0cfc	1.3635293e-21
171	0x1e15e445	7.935199e-21
172	0xa21f0a6e	-2.155404e-18
173	0x1ec31b87	2.0657813e-20
174	0x9dad7769	-4.5916186e-21
175	0xbb2b924d	-0.0026179731
176	0x1e5c94cf	1.1677476e-20
177	0x9caeb3e6	-1.1560857e-21
178	0x1ea5e32a	1.7564007e-20
179	0x9ebd037e	-2.0012598e-20
180	0x9f9da87b	-6.6770814e-20
181	0x9efbd831	-2.6665073e-20
182	0x1de691eb	6.103137e-21
183	0x1d9958f4	4.059074e-21
184	0x1e77d01a	1.31191055e-20
185	0x1e3f27f3	1.0119717e-20
186	0x1d2ffc5e	2.3291528e-21
187	0x9d11643d	-1.9242412e-21
188	0x9d7d0e9c	-3.3491824e-21
189	0x9e81699e	-1.3702089e-20
190	0x9fe57235	-9.717421e-20
191	0xa288ab12	-3.7044e-18
192	0x1e7edca0	1.3492272e-20
193	0x1d201776	2.1187953e-21
194	0x1e4a87c0	1.0721863e-20
195	0x9f326cd9	-3.7783003e-20
196	0x9e4a5478	-1.0711259e-20
197	0x9b729586	-2.0066084e-22
198	0x1da58500	4.3812655e-21
199	0x1f16ccf1	3.193326e-20
200	0x1d343a20	2.3852852e-21
201	0x9eca321c	-2.1408307e-20
202	0x1dbcbb10	4.9956604e-21
203	0x1d755f85	3.2474862e-21
204	0x1d337ea7	2.375593e-21
205	0x1d09b104	1.8223314e-21
206	0x1cc2b83e	1.2885469e-21
207	0xa00a7488	-1.1727612e-19
208	0xa97b9a0b	-5.5866807e-14
209	0x9d196885	-2.0303417e-21
210	0xb2ac025a	-2.0024505e-08
211	0x1d9c37e5	4.135065e-21
212	0x9eacd5f6	-1.82997e-20
213	0x9e7b56e8	-1.3305801e-20
214	0x1d02def6	1.7320625e-21
215	0x9cf0ce2c	-1.5935162e-21
216	0x1db4ef46	4.7893006e-21
217	0x9baf697b	-2.9019487e-22
218	0x1f72a777	5.1384017e-20
219	0x24d88cac	9.3913375e-17
220	0x1e083a25	7.211804e-21
221	0x9eedd5bf	-2.5181754e-20
222	0xb42c5bfe	-1.6052215e-07
223	0x1caa0172	1.125003e-21
224	0x9e99e647	-1.6294746e-20
225	0x1caef5eb	1.1577922e-21
226	0x9c307a77	-5.8391797e-22
227	0x1d8f0b3a	3.7863393e-21
228	0x1e9bcc81	1.6495844e-20
229	0x9bcb923a	-3.367803e-22
230	0x9c75e9bc	-8.1365795e-22
231	0x1f8223d5	5.511642e-20
232	0xa0a5b2a7	-2.807031e-19
233	0x1d1488f3	1.9658438e-21
234	0x9d6594d4	-3.038484e-21
235	0x218d80d4	9.588632e-19
236	0x9e9a4f63	-1.6338218e-20
237	0xb3096e92	-3.199836e-08
238	0x1eba7354	1.9741215e-20
239	0x9d924969	-3.8721783e-21
240	0x1c00a745	4.256784e-22
241	0x9d199740	-2.0327576e-21
242	0x1cdb0a64	1.449489e-21
243	0x21a76fba	1.1345934e-18
244	0x9c81ab6a	-8.580813e-22
245	0x9d8a2e11	-3.6575927e-21
246	0x207ca61a	2.1400189e-19
247	0xb8112558	-3.4605473e-05
248	0x1d110301	1.9192143e-21
249	0xa09663bd	-2.547699e-19
250	0x1d69fe22	3.0968677e-21
251	0x27542a0f	2.944371e-15
252	0x1f3840b1	3.9017027e-20
253	0x1f47d1dc	4.231348e-20
254	0x1d940466	3.917982e-21
255	0x9dbdab63	-5.0205093e-21

conv2.lin_l.weight f4 [64, 64]
0	0x1ea97aee	1.7944414e-20
1	0x3e0675e8	0.13130915
2	0xa6c3468c	-1.3549965e-15
3	0x3deeca8c	0.116597265
4	0x3e07f35d	0.1327643
5	0x9e32bbe9	-9.4621004e-21
6	0x3d1e179d	0.038596738
7	0x1ddee83b	5.900303e-21
8	0xbd4964f2	-0.049168535
9	0x1cd3b23a	1.4008879e-21
10	0x3cebd57f	0.028788326
11	0x1ee6db07	2.4442785e-20
12	0x3deb667d	0.114941575
13	0xbd4c5452	-0.0498851
14	0xbe3873b1	-0.18012883
15	0x1d971b5c	3.9997656e-21
16	0x3dcc4df9	0.099758096
17	0x3d43c278	0.04779288
18	0x268146c2	8.970352e-16
19	0x3e0c198f	0.13681625
20	0x1d4de254	2.7248533e-21
21	0x1d2d03d4	2.2898338e-21
22	0xbd6762f8	-0.05649087
23	0x3d033b53	0.032038998
24	0x9da4be98	-4.3607508e-21
25	0x3cfd1772	0.030894969
26	0x3dd5860c	0.10425958
27	0x3c517dc4	0.0127863325
28	0x9e978ac2	-1.6045136e-20
29	0x9dc2587a	-5.1442855e-21
30	0x3d85b2b6	0.06528227
31	0x3dde68c1	0.10859824
32	0x1df2ed2d	6.43021e-21
33	0xbcd9ec24	-0.026601858
34	0xbd4ba1e8	-0.049714953
35	0xbd96cc09	-0.07363135
36	0xbccfddbe	-0.02537429
37	0x3d0ed563	0.03487147
38	0x2a6f339a	2.1245367e-13
39	0x3d1174c5	0.03551175
40	0xa3ccd61b	-2.2208402e-17
41	0xbd5808b5	-0.05274268
42	0xbcde0f7b	-0.027106991
43	0x1e22952d	8.6070574e-21
44	0x9d85ea7d	-3.5447262e-21
45	0x3e164727	0.1467558
46	0x3c74a606	0.014932161
47	0x3e08bf1a	0.1335415
48	0x3d9e51c0	0.07730436
49	0x9bee5b23	-3.9432693e-22
50	0x33cda465	9.5759596e-08
51	0x3d2debb9	0.04246113
52	0x9d3fefb1	-2.5402557e-21
53	0x1e1675e4	7.965313e-21
54	0x3e056946	0.1302844
55	0xbd8d131b	-0.0688841
56	0x3d3d57af	0.0462262
57	0x1f05d580	2.834045e-20
58	0x3ede56cb	0.43425593
59	0x3d5dcbc6	0.05414941
60	0x3ae78ab1	0.0017665235
61	0xbd42a8cc	-0.04752426
62	0x3d960447	0.073250346
63	0x3d135c02	0.035976417
64	0x1d6fe913	3.1751883e-21
65	0xbc4f671c	-0.012658861
66	0x1d24b05f	2.17964e-21
67	0xbca4e43e	-0.020128366
68	0xbca9c6ea	-0.020724732
69	0x1e584a5d	1.1450323e-20
70	0xbcbabee6	-0.022796106
71	0x9e1deb6f	-8.360197e-21
72	0xbce0f87e	-0.02746224
73	0x9e3d80a0	-1.0032176e-20
74	0xbd085e79	-0.03329322
75	0x1d82e41c	3.4646573e-21
76	0xbce8a1e4	-0.028397508
77	0xbc9aee63	-0.0189125
78	0xbb63fe2e	-0.0034788954
79	0x1d0c02e2	1.8530336e-21
80	0xbce3ebfa	-0.027822483
81	0xbcdd34f4	-0.02700279
82	0x9d9bdb6b	-4.125503e-21
83	0xbcb281eb	-0.021790465
84	0x1db0a0f8	4.675325e-21
85	0x9d1c925b	-2.0722092e-21
86	0xbcbd744c	-0.023126744
87	0xbc91e78f	-0.017810611
88	0x1d697fbb	3.0903328e-21
89	0x9e6e1a19	-1.2605012e-20
90	0xbcedfbd3	-0.029050743
91	0xbc95819b	-0.018250277
92	0x9e49e46d	-1.0688089e-20
93	0x1c204a44	5.3035545e-22
94	0xbca7362e	-0.020411577
95	0xbcc916f1	-0.024547072
96	0x1dc21376	5.1371495e-21
97	0xbc8c4dda	-0.017126966
98	0xbc814a71	-0.015782567
99	0xbc274fb1	-0.010211871
100	0xb90ee9fe	-0.00013629344
101	0xbc05d580	-0.008168578
102	0x9db81363	-4.872444e-21
103	0xbcfd6ea0	-0.03093654
104	0x9dde3424	-5.8816823e-21
105	0xbc8f4450	-0.017488629
106	0xa02537be	-1.3994487e-19
107	0x9d4646ce	-2.6241687e-21
108	0x1dc483c7	5.2017023e-21
109	0xbcde9ed9	-0.027175354
110	0x1e252289	8.742169e-21
111	0xbc50dcdf	-0.012747972
112	0xbcfa5345	-0.030557284
113	0x9e519e61	-1.109712e-20
114	0x1e57891c	1.1410359e-20
115	0xbb90a383	-0.0044140234
116	0x1c380fdf	6.0901006e-22
117	0x1d78033b	3.2824197e-21
118	0xbca84263	-0.020539468
119	0xb5cc6b72	-1.5230455e-06
120	0xbb2dec8d	-0.00265387
121	0x1e060088	7.094011e-21
122	0x9ca948b2	-1.1202273e-21
123	0xbca33caf	-0.019926397
124	0x9cc310e3	-1.2908383e-21
125	0xbca2c1f7	-0.01986788
126	0xbc7c42bf	-0.015396773
127	0xbccca881	-0.024982693
128	0xbad9d2bc	-0.001661859
129	0x32fe5603	2.9608605e-08
130	0xbbed41e3	-0.0072405203
131	0xbc94c727	-0.01816137
132	0x38a2c75d	7.761896e-05
133	0xbad1e86b	-0.00160147
134	0x3a2c6190	0.0006575817
135	0xb68465ec	-3.945772e-06
136	0x39fc38ee	0.00048107601
137	0x9f9de0f5	-6.6864247e-20
138	0xbc7872eb	-0.015164117
139	0xbb040db0	-0.002014976
140	0xb7a466e4	-1.9598236e-05
141	0xbc42478e	-0.01185788
142	0xbb0c6af9	-0.0021426065
143	0x38c92c63	9.5926946e-05
144	0xbba98585	-0.0051733875
145	0xb8a0b099	-7.6622884e-05
146	0xbaa8f5f2	-0.001289068
147	0xbc5f167f	-0.013616203
148	0xa71a20ec	-2.138964e-15
149	0xb2c3e57a	-2.2805342e-08
150	0xba4adb2a	-0.00077383465
151	0xbcdfb6fe	-0.027308937
152	0x20247e2e	1.393309e-19
153	0xbb37178a	-0.0027937614
154	0xbc059890	-0.0081540495
155	0xbce04db6	-0.027380805
156	0xb9e693de	-0.00043979188
157	0x3649d9ce	3.0078113e-06
158	0xb6872c21	-4.028451e-06
159	0xb78a318a	-1.647395e-05
160	0x9e3b985b	-9.931204e-21
161	0xb4a143f1	-3.003802e-07
162	0xba7aefc4	-0.0009572471
163	0x2b663825	8.179033e-13
164	0xbc4ea0ee	-0.012611611
165	0xba8e5b37	-0.0010860924
166	0x3abdd2e1	0.0014482402
167	0xbaa2fa43	-0.0012434203
168	0xb8193ce8	-3.6534766e-05
169	0x3a34e47b	0.00069005013
170	0xbafa1252	-0.0019078946
171	0xb6295527	-2.5232528e-06
172	0x2332b9b8	9.688727e-18
173	0xb7fe99d8	-3.0350799e-05
174	0x2bd02964	1.4790777e-12
175	0xad23a474	-9.301993e-12
176	0x3a41f270	0.0007398492
177	0xbb1e4e1c	-0.0024155444
178	0xbcea9fc7	-0.02864064
179	0xb9ee42df	-0.0004544472
180	0x20bba44b	3.1787752e-19
181	0x9e527f7e	-1.1143672e-20
182	0x9fa466e7	-6.962694e-20
183	0xba8799a5	-0.0010345472
184	0xbd07b9a6	-0.033136033
185	0xba8dabb0	-0.0010808613
186	0x3ac9ba3f	0.0015390589
187	0xb9e3cfb5	-0.00043451568
188	0x3c70363e	0.01466137
189	0xa9a097f0	-7.131784e-14
190	0xbc0c71fc	-0.008572098
191	0x39e9a61c	0.00044564984
192	0x3be10d07	0.006868008
193	0x3d4e9b63	0.050441157
194	0x3be243f9	0.0069050756
195	0x3e7dda45	0.24790294
196	0x3c3e4372	0.01161276
197	0xba703608	-0.0009163325
198	0x3e493b47	0.19651519
199	0x3bb50d61	0.0055252765
200	0x3e15e4bc	0.14638036
201	0xaca91993	-4.806108e-12
202	0x3e1f1099	0.15533675
203	0x3ce97607	0.028498663
204	0x3caf2e1a	0.021384288
205	0x3db0b893	0.08628955
206	0xbe29a2bd	-0.16565986
207	0x3c92b6bd	0.017909402
208	0x3d59aeb1	0.053145114
209	0xbd6d4bdd	-0.057933677
210	0x3d421054	0.047378853
211	0x3ea2a21a	0.317643
212	0x39302960	0.00016800081
213	0xbabc7a1a	-0.0014379651
214	0xbd9171ca	-0.07101782
215	0x3e195d5f	0.14977024
216	0xaadfe64e	-3.9772563e-13
217	0x3baab10f	0.0052090953
218	0x3e4c0e73	0.19927387
219	0x3e25f509	0.16206755
220	0xbc80dd77	-0.015730603
221	0xbb8d3234	-0.004308963
222	0x3d4622d0	0.048373044
223	0x3d9fe502	0.07807352
224	0xa38754e3	-1.467268e-17
225	0xbc133d7c	-0.008986827
226	0x3e0288e8	0.12747538
227	0xbe25dd1f	-0.16197632
228	0xbe042dd6	-0.1290811
229	0xbc4daaf3	-0.0125529645
230	0xbca7e30b	-0.020494005
231	0x3e34c0d9	0.1765169
232	0xba9b440f	-0.0011845845
233	0x3d696297	0.05697879
234	0xbdd79a99	-0.10527534
235	0x3be1e94c	0.0068942662
236	0x369967a4	4.5718207e-06
237	0x3e54f142	0.20795158
238	0x3caa42a6	0.020783734
239	0x3e24e720	0.16103792
240	0x3e19248a	0.14955345
241	0x3c7f88ab	0.015596549
242	0x3b05e398	0.0020429846
243	0x3cb2db56	0.021833103
244	0x3511142b	5.404606e-07
245	0x31acbf0f	5.0275797e-09
246	0x3e0e70a5	0.13910158
247	0xbdb767d0	-0.089553475
248	0x3d352697	0.044226255
249	0xbbf997c6	-0.0076169698
250	0x3efe3189	0.49647167
251	0xbdce8d54	-0.1008555
252	0xbd0033f4	-0.031299546
253	0x3b9ee113	0.0048486083
254	0x3e451864	0.19247586
255	0x3d89354c	0.06699619

conv2.lin_l.bias f4 [64]
0	0x3e0af0af	0.13568376
1	0xbd17e7c0	-0.03708625
2	0xbd6e88e1	-0.058236007
3	0x3e65afe8	0.22430384
4	0x3e428ec2	0.1899977
5	0xbbfd4a07	-0.007729772
6	0x3e8d6f15	0.2762381
7	0xbd4bb7ea	-0.04973594
8	0xbd43beb9	-0.04778931
9	0x3e5fe99f	0.21866463
10	0x3dddf215	0.10837189
11	0x3e06e2ed	0.13172503
12	0xba583345	-0.0008247386
13	0x3e922c1a	0.28549272
14	0x3e23c038	0.15991294
15	0xba36e25e	-0.00069764804
16	0x3e6c55ab	0.23079555
17	0x3e2d10de	0.16900966
18	0xbcf7a9fb	-0.03023242
19	0xbc23f8ce	-0.01000805
20	0x3e66514b	0.22491948
21	0x3e6d9006	0.23199472
22	0xb5f7cd80	-1.8462742e-06
23	0xbca6ab1a	-0.02034526
24	0xbd368263	-0.04455794
25	0x3d999323	0.07498767
26	0x3e995ebb	0.29955086
27	0x3e3ea83b	0.18618862
28	0x3e5211e0	0.20514631
29	0x3cc76ec1	0.024344804
30	0x3e4c46c5	0.19948871
31	0x3e5ae5e0	0.21376753
32	0x3bd2f5fb	0.0064380146
33	0x3ea2927b	0.3175238
34	0xbd6b64ae	-0.057469063
35	0xbd6f2988	-0.058389217
36	0xbd51db68	-0.051234633
37	0xbd7bcf0f	-0.061476763
38	0x3e7430d4	0.23846751
39	0xbccd502b	-0.025062641
40	0xbd2d3b42	-0.04229284
41	0x3e4f6816	0.2025455
42	0xbd439ede	-0.04775893
43	0x258417ee	2.2914565e-16
44	0xba70cba4	-0.0009185618
45	0x3cd2a645	0.02571405
46	0xbd3706e1	-0.044684295
47	0x3e54d8b7	0.20785795
48	0xbc5249be	-0.012834964
49	0x3e8a31a6	0.26991004
50	0xbd682d74	-0.056683972
51	0xbbf8e7d8	-0.0075959973
52	0x3c1a01ad	0.009399814
53	0xbcd88142	-0.026428822
54	0x3ea2ef0f	0.31823012
55	0x3ca9958a	0.020701189
56	0xbc093f75	-0.008376946
57	0xbce45a86	-0.027875196
58	0xbd4cf117	-0.05003461
59	0x3e55f605	0.2089463
60	0x392ce66a	0.00016489034
61	0xbcf0843b	-0.029359927
62	0xbd85e594	-0.06537929
63	0x3e6561cb	0.22400586

conv2.lin_r.weight f4 [64, 64]
0	0x1e116268	7.696586e-21
1	0x3cd3ac3d	0.025838966
2	0x256757a5	2.0065751e-16
3	0x3d0934a4	0.033497468
4	0x3e0d2b42	0.13786033
5	0x9e33ba90	-9.514761e-21
6	0x3e0d7a81	0.13816263
7	0x1ca7d8bd	1.1107159e-21
8	0xbdaec081	-0.08532811
9	0x1e107cb8	7.649088e-21
10	0x3d9bfca6	0.07616548
11	0x1de93a38	6.1734783e-21
12	0xbd78fd3d	-0.06078838
13	0x3d9dc48a	0.077035025
14	0x3dcedb4b	0.101004206
15	0x9eaf3504	-1.8550772e-20
16	0x3c6502b7	0.013977698
17	0x3e173d82	0.14769557
18	0x1f136d11	3.121868e-20
19	0xbd479f58	-0.048735946
20	0x9cd7a3e2	-1.4269869e-21
21	0x9e6bf2d2	-1.24910105e-20
22	0x3dc7e532	0.097605124
23	0x3d4e197a	0.050317265
24	0x9c684b63	-7.6859796e-22
25	0x3e735684	0.23763472
26	0x3d8c2cfc	0.068445176
27	0x3da1ab47	0.07893997
28	0x9e056ab0	-7.063024e-21
29	0x1dbe4091	5.035934e-21
30	0xbd23d76a	-0.040000357
31	0xbcdb4015	-0.026763955
32	0x9e196006	-8.11961e-21
33	0xbd0d8293	-0.034548353
34	0x3d57da7b	0.052698594
35	0xbc9e1398	-0.019296452
36	0xbd609104	-0.054825798
37	0x3c2715f6	0.010198107
38	0x2a4f3595	1.8403883e-13
39	0x3dfddd61	0.1239574
40	0x22a4f8f9	4.47159e-18
41	0x3ddfe7bb	0.10932871
42	0xbc8e41f2	-0.01736543
43	0x9da9bb24	-4.4927426e-21
44	0x1c9c181a	1.0329444e-21
45	0x3d318ce3	0.04334725
46	0xbd25f3c5	-0.04051568
47	0xbd7e0c19	-0.062023256
48	0x3e14e966	0.1454216
49	0x9f249299	-3.4849614e-20
50	0x34b282e0	3.3250308e-07
51	0xbca48d22	-0.020086829
52	0x9bd8253b	-3.5758262e-22
53	0x9b078641	-1.1210318e-22
54	0x3db01ae3	0.08598878
55	0xbd5699e1	-0.052392844
56	0xbd0c67a1	-0.034278516
57	0x1e5e44f5	1.1766842e-20
58	0x3f443084	0.7663653
59	0x3e380857	0.17971931
60	0xbb1095a2	-0.0022061844
61	0xbbf8eee0	-0.0075968355
62	0x3e01fbc5	0.12693699
63	0xb95d2515	-0.00021090017
64	0x9cfa7cfd	-1.6575921e-21
65	0xbc61fc6b	-0.013793091
66	0x1ddfe1f7	5.926125e-21
67	0xbcabcb58	-0.020970985
68	0xbcb3da23	-0.021954602
69	0x9d75a5f9	-3.2511286e-21
70	0xbcf3b4b8	-0.02974926
71	0x1d53ee5d	2.8048848e-21
72	0xbca110d9	-0.019661354
73	0x1c1a3862	5.10272e-22
74	0xbcd55a9e	-0.026044186
75	0x1e40f0e9	1.02142144e-20
76	0xbcb68ef1	-0.022284957
77	0xbd0f4db4	-0.034986213
78	0xbbdc4fbe	-0.006723373
79	0x9dc4c20e	-5.2081416e-21
80	0xbcabb064	-0.020958133
81	0xbceb1461	-0.02869624
82	0x9d041325	-1.7479952e-21
83	0xbcbaef22	-0.022819106
84	0x9ce33072	-1.5034123e-21
85	0x9e0a4161	-7.319179e-21
86	0xbcdad014	-0.026710548
87	0xbcd16839	-0.025562393
88	0x9d2121f7	-2.1325732e-21
89	0x9e8f7a23	-1.5191228e-20
90	0xbc873949	-0.016506808
91	0xbcb354ee	-0.021891084
92	0x1d6bce90	3.1208781e-21
93	0x9dbec984	-5.0500944e-21
94	0xbcb285fb	-0.021792402
95	0xbca31740	-0.019908547
96	0x1e75439d	1.2984174e-20
97	0xbc5fdd34	-0.013663579
98	0xbce38010	-0.027771026
99	0xbca26845	-0.01982511
100	0xb92a7904	-0.00016257545
101	0xbc08d98f	-0.008352651
102	0x9c9daeb4	-1.0434548e-21
103	0xbc89a5c8	-0.016802683
104	0x9e5552ca	-1.12932465e-20
105	0xbcc71afd	-0.024304861
106	0x9f34b670	-3.826739e-20
107	0x9b147e99	-1.2283179e-22
108	0x9e215d9a	-8.542625e-21
109	0xbc9e42b3	-0.019318914
110	0x1d4cfa7e	2.7128677e-21
111	0xbc68a575	-0.014199604
112	0xbc916727	-0.017749382
113	0x9cc20b5f	-1.2840782e-21
114	0x1dd6352a	5.67003e-21
115	0xbb8823e8	-0.004154671
116	0x9c394b4e	-6.1308694e-22
117	0x9e2e2862	-9.219834e-21
118	0xbc8b2169	-0.016983705
119	0xb78a9d5c	-1.6524158e-05
120	0xbb707fc5	-0.003669725
121	0x9c225b71	-5.371949e-22
122	0x9d5ee23c	-2.9498416e-21
123	0xbceebe6c	-0.029143535
124	0x9e896d08	-1.4550533e-20
125	0xbca47ead	-0.020079935
126	0xbca88e34	-0.02057562
127	0xbcd12122	-0.025528494
128	0x3a79b373	0.0009525336
129	0x3095314d	1.0855189e-09
130	0xba8f13ef	-0.0010915975
131	0xbbdaed50	-0.006681122
132	0xb91d601c	-0.0001500849
133	0x39b4b6b0	0.00034468388
134	0xb8c2dfdc	-9.292338e-05
135	0x36a647e0	4.955553e-06
136	0x39ebf2ca	0.00045003585
137	0x1e4170a9	1.02406325e-20
138	0xbbdda7bf	-0.0067643817
139	0x3a90d302	0.0011049213
140	0xb6bf0f90	-5.6940553e-06
141	0xbc660ef9	-0.014041656
142	0xbc795f46	-0.015220469
143	0xb90a64d6	-0.0001319827
144	0x3b2d0532	0.0026400802
145	0x389fc542	7.618453e-05
146	0xbb5c3225	-0.0033599224
147	0xbb9115cc	-0.004427647
148	0x25ed986d	4.1216234e-16
149	0x3303f656	3.0724856e-08
150	0xb8a12e8d	-7.685749e-05
151	0x3b5dc6ee	0.0033840495
152	0x9f3d89ca	-4.0136283e-20
153	0x3b1596ab	0.00228254
154	0xbc2eb643	-0.010663572
155	0xbc2f5982	-0.010702493
156	0xbae64ca4	-0.0017570448
157	0xb70682a8	-8.017443e-06
158	0xb7ffd04c	-3.0495365e-05
159	0xb61a39f0	-2.2981512e-06
160	0x1eaf432f	1.8556632e-20
161	0xb22c3b53	-1.0025206e-08
162	0xbcefbb34	-0.02926407
163	0x258fc52c	2.4940155e-16
164	0xbd063554	-0.0327657
165	0xba7fb352	-0.0009754199
166	0xbc35628a	-0.011070857
167	0xba8399a2	-0.0010040293
168	0xb760d512	-1.340105e-05
169	0xba75f202	-0.000938207
170	0xba9203bb	-0.0011140028
171	0x36178689	2.2579063e-06
172	0xa17f9272	-8.659118e-19
173	0x37b5ff2e	2.1695709e-05
174	0xac651bec	-3.2558357e-12
175	0xaa845491	-2.350659e-13
176	0xbb762b05	-0.0037562263
177	0x3a7d877c	0.0009671373
178	0xbb59eb03	-0.003325165
179	0xbbb5afa8	-0.0055446215
180	0xa14b838d	-6.895318e-19
181	0x9e5e2495	-1.1760147e-20
182	0x202a0593	1.4401404e-19
183	0xba811065	-0.0009846805
184	0xbc3e66c2	-0.011621179
185	0xbad6e3b6	-0.0016394767
186	0x3b7680e7	0.0037613453
187	0x3ba43923	0.005011694
188	0xbbc3b0c6	-0.005972001
189	0x25efcb9e	4.1597867e-16
190	0xbcc3573e	-0.023845311
191	0xbba29a91	-0.0049622734
192	0x3cd21b0e	0.025647666
193	0xbd50472b	-0.05084912
194	0x3d84931d	0.06473372
195	0x3d8b4648	0.068005145
196	0x3e2a0346	0.16602811
197	0xbb8fb14b	-0.0043851486
198	0x3e1dd156	0.15411887
199	0xbae0988c	-0.0017135306
200	0x3da34b2f	0.079733245
201	0x250d94ff	1.2280282e-16
202	0x3e26a6ee	0.16274616
203	0x3c8bccfd	0.01706552
204	0x3ddd3deb	0.108028255
205	0x3e3f9a71	0.18711258
206	0x3e035235	0.12824328
207	0x3c9d67b8	0.019214496
208	0xbb9cbdec	-0.0047833826
209	0x3e4e5cfe	0.20152661
210	0xbc51cc8d	-0.012805116
211	0x3e2937f2	0.16525248
212	0x373bb2c9	1.1187695e-05
213	0x3b636f2a	0.003470371
214	0x3d56e996	0.05246886
215	0x3d86bb99	0.0657875
216	0x239d77cf	1.7072715e-17
217	0x3e3f7070	0.18695235
218	0x3d03f507	0.0322161
219	0x3e1fe485	0.15614517
220	0xbc41d310	-0.011830106
221	0xb84043f2	-4.5839646e-05
222	0x3cb75da5	0.02238352
223	0xbcb2bee9	-0.021819549
224	0xa05da8ec	-1.877532e-19
225	0x3c9ecbef	0.019384352
226	0x3e09645c	0.1341719
227	0x3e4828a6	0.19546756
228	0x3d52e865	0.05149116
229	0x3d7800ea	0.060547747
230	0x3c9beac9	0.019032853
231	0x3aff1c4b	0.0019463388
232	0x3b37a83f	0.0028023866
233	0x3d81b5c1	0.06333495
234	0xbd636a1c	-0.055521116
235	0xba786df9	-0.00094768364
236	0x31d46497	6.181448e-09
237	0x3ddce2bb	0.10785433
238	0xbc4bcf0f	-0.012439503
239	0x3dab4072	0.08361901
240	0x3d778a64	0.060434714
241	0x3c8e7b58	0.0173928
242	0xbc1d445d	-0.009598819
243	0xbcbe1114	-0.023201503
244	0x341f9a2f	1.486412e-07
245	0x2942d8b6	4.326462e-14
246	0x3e265737	0.16244207
247	0xbd9390cb	-0.072053514
248	0x3d766569	0.060155306
249	0x3c833e86	0.016021024
250	0x3f5d7631	0.8650847
251	0x3e1a09d7	0.15042816
252	0x3d849a9c	0.06474802
253	0x3d57f4bc	0.05272363
254	0x3ae1467c	0.0017187144
255	0x3e0edcba	0.13951388

fc.weight f4 [1, 64]
0	0x3d96732e	0.073461875
1	0x3d8f6ad3	0.07002797
2	0x3c25edd5	0.010127504
3	0x3e4700cd	0.19433899
4	0x3e356d80	0.17717552
5	0x3d8a49c3	0.0675235
6	0x3da38b73	0.07985582
7	0xbd793f37	-0.060851302
8	0xbd91be0b	-0.07116326
9	0x3e33993f	0.17538927
10	0x3e0bee94	0.13665229
11	0x3d312cbf	0.043255564
12	0x3d1f7ecb	0.03893928
13	0x3dd9a846	0.10627799
14	0x3d959f4a	0.073057726
15	0x3d3bb36e	0.045825414
16	0x3e49c1b4	0.19702798
17	0x3e1367ca	0.14395061
18	0x3d48b74c	0.04900293
19	0xbcad2d76	-0.021139842
20	0x3dc4b626	0.096050546
21	0x3e01791e	0.12643859
22	0x354aede2	7.559703e-07
23	0x392f8f7d	0.00016742754
24	0xbc99cd8a	-0.018774766
25	0x3d065273	0.032793473
26	0x3e0f107c	0.13971132
27	0x3e158b10	0.1460383
28	0x3e4a5f75	0.19762976
29	0xbbd9a34c	-0.006641781
30	0x3d9c74f3	0.07639494
31	0x3e2eed0b	0.17082612
32	0x3d16fa53	0.03685982
33	0x3e5ae8a5	0.2137781
34	0xbd84042d	-0.06446109
35	0x3d9d0e7c	0.07668778
36	0x3b0c1478	0.0021374505
37	0x3d8a8787	0.06764131
38	0x3e0419d0	0.12900472
39	0x9e5ba155	-1.1627126e-20
40	0xbc0a0447	-0.008423871
41	0x3e3fc39a	0.1872696
42	0xbd72e7e8	-0.059303194
43	0x1e547a73	1.12485085e-20
44	0x1fd64704	9.075001e-20
45	0x3d8224ce	0.06354676
46	0x3dc2bd08	0.09508711
47	0x3e075f40	0.13219929
48	0x3d2ce36c	0.042209074
49	0x3e188af7	0.14896761
50	0xbb8bde10	-0.0042684153
51	0xbcf20529	-0.029543476
52	0x3c3a6871	0.01137744
53	0x3b8af7e3	0.004240976
54	0x3e1a9473	0.15095691
55	0x3d56edd2	0.052472897
56	0xbbd0d492	-0.0063729966
57	0xbadb4ef7	-0.0016731907
58	0xbd6fc179	-0.05853412
59	0x3c8cc883	0.017185455
60	0x3d32c1df	0.04364192
61	0xbd0436ad	-0.032278705
62	0xbd8ad60c	-0.067791075
63	0x3e0a7f47	0.13525115
